…
        attention_name = ''
    # Create model
    model = Model(inputs = X_input, outputs = X, name='LW_ResNet20'+attention_name)

    return model

model = LW_ResNet20(input_shape = (256, 256, 3), classes = 11, attention_module=None)
model.summary()

Model: "LW_ResNet20"
__________________________________________________________________________________________________
Layer (type)                    Output Shape         Param #     Connected to                     
==================================================================================================
input_4 (InputLayer)            [(None, 256, 256, 3) 0                                            
__________________________________________________________________________________________________
zero_padding2d_3 (ZeroPadding2D (None, 262, 262, 3)  0           input_4[0][0]                    
__________________________________________________________________________________________________
conv1 (Conv2D)                  (None, 128, 128, 16) 2368        zero_padding2d_3[0][0]           
__________________________________________________________________________________________________
bn_conv1 (BatchNormalization)   (None, 128, 128, 16) 64          conv1[0][0]                      
__________________________________________________________________________________________________
activation_54 (Activation)      (None, 128, 128, 16) 0           bn_conv1[0][0]                   
__________________________________________________________________________________________________
max_pooling2d_3 (MaxPooling2D)  (None, 63, 63, 16)   0           activation_54[0][0]              
__________________________________________________________________________________________________
res2a_branch2a (Conv2D)         (None, 63, 63, 16)   272         max_pooling2d_3[0][0]            
__________________________________________________________________________________________________
bn2a_branch2a (BatchNormalizati (None, 63, 63, 16)   64          res2a_branch2a[0][0]             
__________________________________________________________________________________________________
activation_55 (Activation)      (None, 63, 63, 16)   0           bn2a_branch2a[0][0]              
__________________________________________________________________________________________________
res2a_branch2b (Conv2D)         (None, 63, 63, 16)   2320        activation_55[0][0]              
__________________________________________________________________________________________________
bn2a_branch2b (BatchNormalizati (None, 63, 63, 16)   64          res2a_branch2b[0][0]             
__________________________________________________________________________________________________
activation_56 (Activation)      (None, 63, 63, 16)   0           bn2a_branch2b[0][0]              
__________________________________________________________________________________________________
res2a_branch2c (Conv2D)         (None, 63, 63, 64)   1088        activation_56[0][0]              
__________________________________________________________________________________________________
res2a_branch1 (Conv2D)          (None, 63, 63, 64)   1088        max_pooling2d_3[0][0]            
__________________________________________________________________________________________________
bn2a_branch2c (BatchNormalizati (None, 63, 63, 64)   256         res2a_branch2c[0][0]             
__________________________________________________________________________________________________
bn2a_branch1 (BatchNormalizatio (None, 63, 63, 64)   256         res2a_branch1[0][0]              
__________________________________________________________________________________________________
add_18 (Add)                    (None, 63, 63, 64)   0           bn2a_branch2c[0][0]              
                                                                 bn2a_branch1[0][0]               
__________________________________________________________________________________________________
activation_57 (Activation)      (None, 63, 63, 64)   0           add_18[0][0]                     
__________________________________________________________________________________________________
res3a_branch2a (Conv2D)         (None, 32, 32, 32)   2080        activation_57[0][0]              
__________________________________________________________________________________________________
bn3a_branch2a (BatchNormalizati (None, 32, 32, 32)   128         res3a_branch2a[0][0]             
__________________________________________________________________________________________________
activation_58 (Activation)      (None, 32, 32, 32)   0           bn3a_branch2a[0][0]              
__________________________________________________________________________________________________
res3a_branch2b (Conv2D)         (None, 32, 32, 32)   9248        activation_58[0][0]              
__________________________________________________________________________________________________
bn3a_branch2b (BatchNormalizati (None, 32, 32, 32)   128         res3a_branch2b[0][0]             
__________________________________________________________________________________________________
activation_59 (Activation)      (None, 32, 32, 32)   0           bn3a_branch2b[0][0]              
__________________________________________________________________________________________________
res3a_branch2c (Conv2D)         (None, 32, 32, 128)  4224        activation_59[0][0]              
__________________________________________________________________________________________________
res3a_branch1 (Conv2D)          (None, 32, 32, 128)  8320        activation_57[0][0]              
__________________________________________________________________________________________________
bn3a_branch2c (BatchNormalizati (None, 32, 32, 128)  512         res3a_branch2c[0][0]             
__________________________________________________________________________________________________
bn3a_branch1 (BatchNormalizatio (None, 32, 32, 128)  512         res3a_branch1[0][0]              
__________________________________________________________________________________________________
add_19 (Add)                    (None, 32, 32, 128)  0           bn3a_branch2c[0][0]              
                                                                 bn3a_branch1[0][0]               
__________________________________________________________________________________________________
activation_60 (Activation)      (None, 32, 32, 128)  0           add_19[0][0]                     
__________________________________________________________________________________________________
res3b_branch2a (Conv2D)         (None, 32, 32, 32)   4128        activation_60[0][0]              
__________________________________________________________________________________________________
bn3b_branch2a (BatchNormalizati (None, 32, 32, 32)   128         res3b_branch2a[0][0]             
__________________________________________________________________________________________________
activation_61 (Activation)      (None, 32, 32, 32)   0           bn3b_branch2a[0][0]              
__________________________________________________________________________________________________
res3b_branch2b (Conv2D)         (None, 32, 32, 32)   9248        activation_61[0][0]              
__________________________________________________________________________________________________
bn3b_branch2b (BatchNormalizati (None, 32, 32, 32)   128         res3b_branch2b[0][0]             
__________________________________________________________________________________________________
activation_62 (Activation)      (None, 32, 32, 32)   0           bn3b_branch2b[0][0]              
__________________________________________________________________________________________________
res3b_branch2c (Conv2D)         (None, 32, 32, 128)  4224        activation_62[0][0]              
__________________________________________________________________________________________________
bn3b_branch2c (BatchNormalizati (None, 32, 32, 128)  512         res3b_branch2c[0][0]             
__________________________________________________________________________________________________
add_20 (Add)                    (None, 32, 32, 128)  0           bn3b_branch2c[0][0]              
                                                                 activation_60[0][0]              
__________________________________________________________________________________________________
activation_63 (Activation)      (None, 32, 32, 128)  0           add_20[0][0]                     
__________________________________________________________________________________________________
res4a_branch2a (Conv2D)         (None, 16, 16, 64)   8256        activation_63[0][0]              
__________________________________________________________________________________________________
bn4a_branch2a (BatchNormalizati (None, 16, 16, 64)   256         res4a_branch2a[0][0]             
__________________________________________________________________________________________________
activation_64 (Activation)      (None, 16, 16, 64)   0           bn4a_branch2a[0][0]              
__________________________________________________________________________________________________
res4a_branch2b (Conv2D)         (None, 16, 16, 64)   36928       activation_64[0][0]              
__________________________________________________________________________________________________
bn4a_branch2b (BatchNormalizati (None, 16, 16, 64)   256         res4a_branch2b[0][0]             
__________________________________________________________________________________________________
activation_65 (Activation)      (None, 16, 16, 64)   0           bn4a_branch2b[0][0]              
__________________________________________________________________________________________________
res4a_branch2c (Conv2D)         (None, 16, 16, 256)  16640       activation_65[0][0]              
__________________________________________________________________________________________________
res4a_branch1 (Conv2D)          (None, 16, 16, 256)  33024       activation_63[0][0]              
__________________________________________________________________________________________________
bn4a_branch2c (BatchNormalizati (None, 16, 16, 256)  1024        res4a_branch2c[0][0]             
__________________________________________________________________________________________________
bn4a_branch1 (BatchNormalizatio (None, 16, 16, 256)  1024        res4a_branch1[0][0]              
__________________________________________________________________________________________________
add_21 (Add)                    (None, 16, 16, 256)  0           bn4a_branch2c[0][0]              
                                                                 bn4a_branch1[0][0]               
__________________________________________________________________________________________________
activation_66 (Activation)      (None, 16, 16, 256)  0           add_21[0][0]                     
__________________________________________________________________________________________________
res4b_branch2a (Conv2D)         (None, 16, 16, 64)   16448       activation_66[0][0]              
__________________________________________________________________________________________________
bn4b_branch2a (BatchNormalizati (None, 16, 16, 64)   256         res4b_branch2a[0][0]             
__________________________________________________________________________________________________
activation_67 (Activation)      (None, 16, 16, 64)   0           bn4b_branch2a[0][0]              
__________________________________________________________________________________________________
res4b_branch2b (Conv2D)         (None, 16, 16, 64)   36928       activation_67[0][0]              
__________________________________________________________________________________________________
bn4b_branch2b (BatchNormalizati (None, 16, 16, 64)   256         res4b_branch2b[0][0]             
__________________________________________________________________________________________________
activation_68 (Activation)      (None, 16, 16, 64)   0           bn4b_branch2b[0][0]              
__________________________________________________________________________________________________
res4b_branch2c (Conv2D)         (None, 16, 16, 256)  16640       activation_68[0][0]              
__________________________________________________________________________________________________
bn4b_branch2c (BatchNormalizati (None, 16, 16, 256)  1024        res4b_branch2c[0][0]             
__________________________________________________________________________________________________
add_22 (Add)                    (None, 16, 16, 256)  0           bn4b_branch2c[0][0]              
                                                                 activation_66[0][0]              
__________________________________________________________________________________________________
activation_69 (Activation)      (None, 16, 16, 256)  0           add_22[0][0]                     
__________________________________________________________________________________________________
res5a_branch2a (Conv2D)         (None, 8, 8, 256)    65792       activation_69[0][0]              
__________________________________________________________________________________________________
bn5a_branch2a (BatchNormalizati (None, 8, 8, 256)    1024        res5a_branch2a[0][0]             
__________________________________________________________________________________________________
activation_70 (Activation)      (None, 8, 8, 256)    0           bn5a_branch2a[0][0]              
__________________________________________________________________________________________________
res5a_branch2b (Conv2D)         (None, 8, 8, 256)    590080      activation_70[0][0]              
__________________________________________________________________________________________________
bn5a_branch2b (BatchNormalizati (None, 8, 8, 256)    1024        res5a_branch2b[0][0]             
__________________________________________________________________________________________________
activation_71 (Activation)      (None, 8, 8, 256)    0           bn5a_branch2b[0][0]              
__________________________________________________________________________________________________
res5a_branch2c (Conv2D)         (None, 8, 8, 1024)   263168      activation_71[0][0]              
__________________________________________________________________________________________________
res5a_branch1 (Conv2D)          (None, 8, 8, 1024)   263168      activation_69[0][0]              
__________________________________________________________________________________________________
bn5a_branch2c (BatchNormalizati (None, 8, 8, 1024)   4096        res5a_branch2c[0][0]             
__________________________________________________________________________________________________
bn5a_branch1 (BatchNormalizatio (None, 8, 8, 1024)   4096        res5a_branch1[0][0]              
__________________________________________________________________________________________________
add_23 (Add)                    (None, 8, 8, 1024)   0           bn5a_branch2c[0][0]              
                                                                 bn5a_branch1[0][0]               
__________________________________________________________________________________________________
activation_72 (Activation)      (None, 8, 8, 1024)   0           add_23[0][0]                     
__________________________________________________________________________________________________
avg_pool (GlobalAveragePooling2 (None, 1024)         0           activation_72[0][0]              
__________________________________________________________________________________________________
fc_11 (Dense)                   (None, 11)           11275       avg_pool[0][0]                   
==================================================================================================
Total params: 1,424,043
Trainable params: 1,415,499
Non-trainable params: 8,544
__________________________________
